…
	 ref_file             : ./cimsim/Component/ADC_files/NLinear_levels/test.csv
	 linear_file          : ./cimsim/Component/ADC_files/Linear/BERT/bit7.csv
	 nlinear_file         : ./cimsim/Component/ADC_files/NLinear_levels/test.csv
	 nlineartype          : KMEANS
Section NonIdeal  
	 noiseloc             : None
	 noisetype            : Gaussian
	 noisestd             : 10
	 printstat            : False
	 weightnoise          : 0.0
===============================configurations===============================
BertForSequenceClassification(
  (bert): BertModel(
    (embeddings): BertEmbeddings(
      (word_embeddings): Embedding(30522, 1024, padding_idx=0)
      (position_embeddings): Embedding(512, 1024)
      (token_type_embeddings): Embedding(2, 1024)
      (LayerNorm): LayerNorm((1024,), eps=1e-12, elementwise_affine=True)
      (dropout): Dropout(p=0.1, inplace=False)
    )
    (encoder): BertEncoder(
      (layer): ModuleList(
        (0-23): 24 x BertLayer(
          (attention): BertAttention(
            (self): BertSelfAttention(
              (query): Linear(in_features=1024, out_features=1024, bias=True)
              (key): Linear(in_features=1024, out_features=1024, bias=True)
              (value): Linear(in_features=1024, out_features=1024, bias=True)
              (dropout): Dropout(p=0.1, inplace=False)
            )
            (output): BertSelfOutput(
              (dense): Linear(in_features=1024, out_features=1024, bias=True)
              (LayerNorm): LayerNorm((1024,), eps=1e-12, elementwise_affine=True)
              (dropout): Dropout(p=0.1, inplace=False)
            )
          )
          (intermediate): BertIntermediate(
            (dense): Linear(in_features=1024, out_features=4096, bias=True)
            (intermediate_act_fn): GELUActivation()
          )
          (output): BertOutput(
            (dense): Linear(in_features=4096, out_features=1024, bias=True)
            (LayerNorm): LayerNorm((1024,), eps=1e-12, elementwise_affine=True)
            (dropout): Dropout(p=0.1, inplace=False)
          )
        )
      )
    )
    (pooler): BertPooler(
      (dense): Linear(in_features=1024, out_features=1024, bias=True)
      (activation): Tanh()
    )
  )
  (dropout): Dropout(p=0.1, inplace=False)
  (classifier): Linear(in_features=1024, out_features=2, bias=True)
)
Train Epoch: 0 [0/4] Loss: 0.0361 Acc: 0.7500 lr:0.000020
Train Epoch: 0 [0/4] Loss: 0.0327 Acc: 0.7500 lr:0.000020
Train Epoch: 0 [0/4] Loss: 0.0468 Acc: 0.7500 lr:0.000020
Train Epoch: 0 [0/4] Loss: 0.0078 Acc: 0.8125 lr:0.000020
Train Epoch: 0 [0/4] Loss: 0.0076 Acc: 0.8500 lr:0.000020
Train Epoch: 0 [0/4] Loss: 0.0197 Acc: 0.8542 lr:0.000020
Train Epoch: 0 [0/4] Loss: 0.0190 Acc: 0.8571 lr:0.000020
…
